2024-12-19 18:10:51,375   model details:
{'self': WTFTP(
  (inp_embding): Sequential(
    (0): Embed(
      (embed): Linear(in_features=6, out_features=32, bias=False)
    )
    (1): ReLU()
    (2): Embed(
      (embed): Linear(in_features=32, out_features=64, bias=False)
    )
    (3): ReLU()
  )
  (encoder): LSTM(64, 64, num_layers=4, bias=False, batch_first=True)
  (Wt_attns): ModuleList(
    (0): WaveletAttention(
      (enhance): EnhancedBlock(
        (comp): Sequential(
          (0): Linear(in_features=64, out_features=32, bias=False)
          (1): ReLU()
          (2): Linear(in_features=32, out_features=1, bias=False)
        )
        (activate): Sequential(
          (0): Linear(in_features=9, out_features=4, bias=False)
          (1): ReLU()
          (2): Linear(in_features=4, out_features=9, bias=False)
          (3): Sigmoid()
        )
      )
      (convs): Sequential(
        (0): Conv1d(64, 64, kernel_size=(2,), stride=(2,), padding=(1,), bias=False)
        (1): ReLU()
      )
    )
    (1): WaveletAttention(
      (enhance): EnhancedBlock(
        (comp): Sequential(
          (0): Linear(in_features=64, out_features=32, bias=False)
          (1): ReLU()
          (2): Linear(in_features=32, out_features=1, bias=False)
        )
        (activate): Sequential(
          (0): Linear(in_features=9, out_features=4, bias=False)
          (1): ReLU()
          (2): Linear(in_features=4, out_features=9, bias=False)
          (3): Sigmoid()
        )
      )
      (convs): Sequential(
        (0): Conv1d(64, 64, kernel_size=(3,), stride=(3,), bias=False)
        (1): ReLU()
      )
    )
    (2-3): 2 x WaveletAttention(
      (enhance): EnhancedBlock(
        (comp): Sequential(
          (0): Linear(in_features=64, out_features=32, bias=False)
          (1): ReLU()
          (2): Linear(in_features=32, out_features=1, bias=False)
        )
        (activate): Sequential(
          (0): Linear(in_features=9, out_features=4, bias=False)
          (1): ReLU()
          (2): Linear(in_features=4, out_features=9, bias=False)
          (3): Sigmoid()
        )
      )
      (convs): Sequential(
        (0): Conv1d(64, 64, kernel_size=(5,), stride=(5,), padding=(1,), bias=False)
        (1): ReLU()
      )
    )
  )
  (decoders): ModuleList(
    (0-3): 4 x LSTM(64, 64, bias=False, batch_first=True)
  )
  (LNs): ModuleList(
    (0-3): 4 x LayerNorm((64,), eps=1e-05, elementwise_affine=True)
  )
  (oup_embdings): ModuleList(
    (0-3): 4 x Embed(
      (embed): Linear(in_features=64, out_features=6, bias=True)
    )
  )
), 'n_inp': 6, 'en_layers': 4, 'activation': 'relu', 'maxlevel': 3, 'en_dropout': 0.0, 'out_split': False, 'decoder_init_zero': False, 'attn_conv_params': None, 'bias': True, 'de_dropout': 0.0, 'de_layers': 1, 'his_step': 9, 'n_embding': 64, 'n_oup': 6, 'proj': 'linear', 'se_skip': True, '__class__': <class 'model.WTFTP'>, 'train_opt': Namespace
…
